…
racy: 0.6975\n","X_train.shape : (2800, 30, 4)\n","X_val.shape : (1200, 30, 4)\n","Y_train.shape : (2800, 2)\n","Y_val.shape : (1200, 2)\n","{0: 0.6363636363636364, 1: 2.3333333333333335}\n","Model: \"functional_51\"\n","_________________________________________________________________\n","Layer (type)                 Output Shape              Param #   \n","=================================================================\n","input (InputLayer)           [(None, 30, 4)]           0         \n","_________________________________________________________________\n","dense_100 (Dense)            (None, 30, 64)            320       \n","_________________________________________________________________\n","dense_101 (Dense)            (None, 30, 32)            2080      \n","_________________________________________________________________\n","dropout_25 (Dropout)         (None, 30, 32)            0         \n","_________________________________________________________________\n","flatten_25 (Flatten)         (None, 960)               0         \n","_________________________________________________________________\n","dense_102 (Dense)            (None, 64)                61504     \n","_________________________________________________________________\n","leaky_re_lu_25 (LeakyReLU)   (None, 64)                0         \n","_________________________________________________________________\n","dense_103 (Dense)            (None, 2)                 130       \n","=================================================================\n","Total params: 64,034\n","Trainable params: 64,034\n","Non-trainable params: 0\n","_________________________________________________________________\n","None\n","Epoch 1/1000\n","WARNING:tensorflow:Callbacks method `on_train_batch_end` is slow compared to the batch time (batch time: 0.0028s vs `on_train_batch_end` tim
…
