…
ow:From /usr/local/lib/python3.6/dist-packages/keras/backend/tensorflow_backend.py:3733: calling dropout (from tensorflow.python.ops.nn_ops) with keep_prob is deprecated and will be removed in a future version.\n","Instructions for updating:\n","Please use `rate` instead of `keep_prob`. Rate should be set to `rate = 1 - keep_prob`.\n","Model: \"model_1\"\n","_________________________________________________________________\n","Layer (type)                 Output Shape              Param #   \n","=================================================================\n","input (InputLayer)           (None, 96, 6, 1)          0         \n","_________________________________________________________________\n","conv1_1 (Conv2D)             (None, 96, 6, 100)        1000      \n","_________________________________________________________________\n","batch_normalization_1 (Batch (None, 96, 6, 100)        400       \n","_________________________________________________________________\n","pool1_1 (MaxPooling2D)       (None, 48, 3, 100)        0         \n","_________________________________________________________________\n","conv2_1 (Conv2D)             (None, 48, 3, 100)        90100     \n","_________________________________________________________________\n","batch_normalization_2 (Batch (None, 48, 3, 100)        400       \n","_________________________________________________________________\n","pool2_1 (MaxPooling2D)       (None, 24, 1, 100)        0         \n","_________________________________________________________________\n","drop2_1 (Dropout)            (None, 24, 1, 100)        0         \n","_________________________________________________________________\n","flatten (Flatten)            (None, 2400)              0         \n","_________________________________________________________________\n","dense (Dense)                (None, 100)               240100    \n","_________________________________________________________________\n","output (Dense)               (None, 2)                 202       \n","=================================================================\n","Total params: 332,202\n","Trainable params: 331,802\n","Non-trainable params: 400\n","_________________________________________________________________\n","None\n","WARNING:tensorflow:From /usr/local/lib/python3.6/dist-packages/keras/optimizers.py:793: The name tf.train.Optimizer is deprecated. Please use tf.compat.v
…
