…
2,  \n","                    callbacks=callbacks_list,\n","                    class_weight=class_weights,\n","                    validation_data=val_flow,  \n","                    validation_steps=len(X_val) / batch_size,\n","                    shuffle=False)\n","\n"],"execution_count":30,"outputs":[{"output_type":"stream","text":["Model: \"model_4\"\n","_________________________________________________________________\n","Layer (type)                 Output Shape              Param #   \n","=================================================================\n","input (InputLayer)           (None, 200, 18, 1)        0         \n","_________________________________________________________________\n","conv2d_7 (Conv2D)            (None, 200, 18, 64)       640       \n","_________________________________________________________________\n","leaky_re_lu_10 (LeakyReLU)   (None, 200, 18, 64)       0         \n","_________________________________________________________________\n","max_pooling2d_7 (MaxPooling2 (None, 100, 9, 64)        0         \n","_________________________________________________________________\n","conv2d_8 (Conv2D)            (None, 100, 9, 128)       73856     \n","_________________________________________________________________\n","leaky_re_lu_11 (LeakyReLU)   (None, 100, 9, 128)       0         \n","_________________________________________________________________\n","max_pooling2d_8 (MaxPooling2 (None, 50, 4, 128)        0         \n","_________________________________________________________________\n","flatten_4 (Flatten)          (None, 25600)             0         \n","_________________________________________________________________\n","dense_7 (Dense)              (None, 64)                1638464   \n","_________________________________________________________________\n","leaky_re_lu_12 (LeakyReLU)   (None, 64)                0         \n","_________________________________________________________________\n","dense_8 (Dense)              (None, 2)                 130       \n","=================================================================\n","Total params: 1,713,090\n","Trainable params: 1,713,090\n","Non-trainable params: 0\n","_________________________________________________________________\n","None\n","Epoch 1/200\n"," - 1s - loss: 0.7049 - accuracy: 0.5172 - val_loss: 0.7603 - val_accuracy: 0.1978\n","\n","Epoch 00001: val_loss improved from inf to 0
…
