…
ensorflow-1.15.2/python3.7/tensorflow_core/python/ops/resource_variable_ops.py:1630: calling BaseResourceVariable.__init__ (from tensorflow.python.ops.resource_variable_ops) with constraint is deprecated and will be removed in a future version.\n","Instructions for updating:\n","If using Keras pass *_constraint arguments to layers.\n","Model: \"model_1\"\n","_________________________________________________________________\n","Layer (type)                 Output Shape              Param #   \n","=================================================================\n","input (InputLayer)           (None, 45, 1)             0         \n","_________________________________________________________________\n","lstm_1 (LSTM)                (None, 10)                480       \n","_________________________________________________________________\n","leaky_re_lu_1 (LeakyReLU)    (None, 10)                0         \n","_________________________________________________________________\n","dense_1 (Dense)              (None, 64)                704       \n","_________________________________________________________________\n","leaky_re_lu_2 (LeakyReLU)    (None, 64)                0         \n","_________________________________________________________________\n","batch_normalization_1 (Batch (None, 64)                256       \n","_________________________________________________________________\n","dense_2 (Dense)              (None, 128)               8320      \n","_________________________________________________________________\n","leaky_re_lu_3 (LeakyReLU)    (None, 128)               0         \n","_________________________________________________________________\n","dense_3 (Dense)              (None, 256)               33024     \n","_________________________________________________________________\n","leaky_re_lu_4 (LeakyReLU)    (None, 256)               0         \n","_________________________________________________________________\n","batch_normalization_2 (Batch (None, 256)               1024      \n","_________________________________________________________________\n","dense_4 (Dense)              (None, 128)               32896     \n","_________________________________________________________________\n","leaky_re_lu_5 (LeakyReLU)    (None, 128)               0         \n","_________________________________________________________________\n","dense_5 (Dense)              (None, 64)                8256      \n","_________________________________________________________________\n","leaky_re_lu_6 (LeakyReLU)    (None, 64)                0         \n","_________________________________________________________________\n","dropout_1 (Dropout)          (None, 64)                0         \n","_________________________________________________________________\n","dense_6 (Dense)              (None, 2)                 130       \n","=================================================================\n","Total params: 85,090\n","Trainable params: 84,450\n","Non-trainable params: 640\n","_________________________________________________________________\n","None\n","WARNING:tensorflow:From /tensorflow-1.15.2/python3.7/keras/backend/tensorflow_backend.py:422: The name tf.global_variables is deprecated. Please use tf.com
…
