…
                   callbacks=callbacks_list,\n","                    class_weight=class_weights,\n","                    validation_data=(x_val, y_val_ohe),  \n","                    validation_steps=int(len(x_val) / batch_size),\n","                    shuffle=False)"],"execution_count":null,"outputs":[{"output_type":"stream","text":["Model: \"model_3\"\n","_________________________________________________________________\n","Layer (type)                 Output Shape              Param #   \n","=================================================================\n","input (InputLayer)           (None, 45, 6)             0         \n","_________________________________________________________________\n","lstm_4 (LSTM)                (None, 10)                680       \n","_________________________________________________________________\n","leaky_re_lu_17 (LeakyReLU)   (None, 10)                0         \n","_________________________________________________________________\n","dense_16 (Dense)             (None, 64)                704       \n","_________________________________________________________________\n","leaky_re_lu_18 (LeakyReLU)   (None, 64)                0         \n","_________________________________________________________________\n","batch_normalization_7 (Batch (None, 64)                256       \n","_________________________________________________________________\n","dense_17 (Dense)             (None, 128)               8320      \n","_________________________________________________________________\n","leaky_re_lu_19 (LeakyReLU)   (None, 128)               0         \n","_________________________________________________________________\n","dense_18 (Dense)             (None, 256)               33024     \n","_________________________________________________________________\n","leaky_re_lu_20 (LeakyReLU)   (None, 256)               0         \n","_________________________________________________________________\n","batch_normalization_8 (Batch (None, 256)               1024      \n","_________________________________________________________________\n","dropout_4 (Dropout)          (None, 256)               0         \n","_________________________________________________________________\n","dense_19 (Dense)             (None, 128)               32896     \n","_________________________________________________________________\n","leaky_re_lu_21 (LeakyReLU)   (None, 128)               0         \n","_________________________________________________________________\n","dense_20 (Dense)             (None, 64)                8256      \n","_________________________________________________________________\n","leaky_re_lu_22 (LeakyReLU)   (None, 64)                0         \n","_________________________________________________________________\n","dense_21 (Dense)             (None, 2)                 130       \n","=================================================================\n","Total params: 85,290\n","Trainable params: 84,650\n","Non-trainable params: 640\n","_________________________________________________________________\n","None\n","Train on 9987 samples, validate on 3329 samples\n","Epoch 1/1000\n"," - 2s - loss: 0.8697 - accuracy: 0.4940 - val_loss: 0.1157 - val_accuracy: 2.6170\n","
…
