…
ow:From /usr/local/lib/python3.6/dist-packages/keras/backend/tensorflow_backend.py:3733: calling dropout (from tensorflow.python.ops.nn_ops) with keep_prob is deprecated and will be removed in a future version.\n","Instructions for updating:\n","Please use `rate` instead of `keep_prob`. Rate should be set to `rate = 1 - keep_prob`.\n","Model: \"model_1\"\n","_________________________________________________________________\n","Layer (type)                 Output Shape              Param #   \n","=================================================================\n","input (InputLayer)           (None, 18, 18, 1)         0         \n","_________________________________________________________________\n","conv1_1 (Conv2D)             (None, 18, 18, 64)        640       \n","_________________________________________________________________\n","batch_normalization_1 (Batch (None, 18, 18, 64)        256       \n","_________________________________________________________________\n","conv1_2 (Conv2D)             (None, 18, 18, 64)        36928     \n","_________________________________________________________________\n","batch_normalization_2 (Batch (None, 18, 18, 64)        256       \n","_________________________________________________________________\n","pool1_1 (MaxPooling2D)       (None, 9, 9, 64)          0         \n","_________________________________________________________________\n","drop1_1 (Dropout)            (None, 9, 9, 64)          0         \n","_________________________________________________________________\n","conv2_1 (Conv2D)             (None, 9, 9, 128)         73856     \n","_________________________________________________________________\n","batch_normalization_3 (Batch (None, 9, 9, 128)         512       \n","_________________________________________________________________\n","conv2_2 (Conv2D)             (None, 9, 9, 128)         147584    \n","_________________________________________________________________\n","batch_normalization_4 (Batch (None, 9, 9, 128)         512       \n","_________________________________________________________________\n","conv2_3 (Conv2D)             (None, 9, 9, 128)         147584    \n","_________________________________________________________________\n","pool2_1 (MaxPooling2D)       (None, 4, 4, 128)         0         \n","_________________________________________________________________\n","drop2_1 (Dropout)            (None, 4, 4, 128)         0         \n","_________________________________________________________________\n","conv3_1 (Conv2D)             (None, 4, 4, 256)         295168    \n","_________________________________________________________________\n","batch_normalization_6 (Batch (None, 4, 4, 256)         1024      \n","_________________________________________________________________\n","conv3_2 (Conv2D)             (None, 4, 4, 256)         590080    \n","_________________________________________________________________\n","batch_normalization_7 (Batch (None, 4, 4, 256)         1024      \n","_________________________________________________________________\n","conv3_3 (Conv2D)             (None, 4, 4, 256)         590080    \n","_________________________________________________________________\n","batch_normalization_8 (Batch (None, 4, 4, 256)         1024      \n","_________________________________________________________________\n","conv3_4 (Conv2D)             (None, 4, 4, 256)         590080    \n","_________________________________________________________________\n","batch_normalization_9 (Batch (None, 4, 4, 256)         1024      \n","_________________________________________________________________\n","pool3_1 (MaxPooling2D)       (None, 2, 2, 256)         0         \n","_________________________________________________________________\n","drop3_1 (Dropout)            (None, 2, 2, 256)         0         \n","_________________________________________________________________\n","flatten (Flatten)            (None, 1024)              0         \n","_________________________________________________________________\n","output (Dense)               (None, 2)                 2050      \n","=================================================================\n","Total params: 2,479,682\n","Trainable params: 2,476,866\n","Non-trainable params: 2,816\n","_________________________________________________________________\n","None\n","WARNING:tensorflow:From /usr/local/lib/python3.6/dist-packages/keras/optimizers.py:793: The name tf.train.Optimizer is deprecated. Please use tf.com
…
